model_uas/improved_cervical_cancer_model.tflite (tflite, 11176 bytes, 5 tensors)

tfl.pseudo_qconst1 i1 [1, 8] scale=0.0055834213 zero_point=0
00000000: 92bc ab9b 7f67 3f63
-0.61417633 -0.37967265 -0.4745908 -0.56392556 0.7090945 0.5750924 0.35175553 0.5527587

tfl.pseudo_qconst3 i1 [8, 16]
00000000: 111f edc1 342f 0be5 7ffc 0bee f027 2d30
00000010: c217 4134 1b05 e942 7fbf 4fa6 4f8d fdce
00000020: 0452 ff55 367f 1eb7 bd43 b822 32a6 e314
00000030: d7ec 20bd 1af7 ed1d 8106 edd8 22c2 3125
00000040: 419e eb81 5ffb 6b32 f025 4826 042f c1c4
00000050: 3de1 d181 e619 6e59 ff3e a2b4 b035 ab01
00000060: 36dd ea40 df9f b0d2 442d 9f5e 367f 21e0
00000070: ea2b ad65 39ff fccf 3d67 8175 aff6 d652
17 31 -19 -63 52 47 11 -27
127 -4 11 -18 -16 39 45 48
-62 23 65 52 27 5 -23 66
127 -65 79 -90 79 -115 -3 -50
4 82 -1 85 54 127 30 -73
-67 67 -72 34 50 -90 -29 20
-41 -20 32 -67 26 -9 -19 29
-127 6 -19 -40 34 -62 49 37
65 -98 -21 -127 95 -5 107 50
-16 37 72 38 4 47 -63 -60
61 -31 -47 -127 -26 25 110 89
-1 62 -94 -76 -80 53 -85 1
54 -35 -22 64 -33 -97 -80 -46
68 45 -97 94 54 127 33 -32
-22 43 -83 101 57 -1 -4 -49
61 103 -127 117 -81 -10 -42 82

tfl.pseudo_qconst5 i1 [16, 32]
00000000: 000b 000f 0000 19f7 007f 00e1 17f1 0413
00000010: fef8 faff f415 14fd 08e4 3911 0000 fefa
00000020: 00f4 0181 0001 f572 0001 022b b77a 02cf
00000030: 2118 1bf4 57c5 f242 fffd deff 0000 f9ac
00000040: 00f8 ff81 0101 015c 00c8 ff42 d01c fea9
00000050: 4430 07a6 53c8 031e fc0c f2a9 0000 13d0
00000060: 00ff 00f3 0000 fef2 0019 02ef 69f5 d2fe
00000070: e405 7f2d f015 3ffe ea32 fd0f 0000 f001
00000080: 00f6 00ef 0000 810d 00cd fa25 820c fe06
00000090: 20fa dfef 36ce d900 01f3 edd9 0000 01fd
000000a0: 00f2 ffdb 0001 0144 00b8 0317 81fd e9cc
000000b0: 2ff4 0dfc 23f3 0010 f436 aaf2 0001 27f9
000000c0: 0002 000a 0001 1ac6 0007 eefd b3f2 3466
000000d0: 01cc baf4 0781 9ad1 3fbc 161b 0000 a21b
000000e0: 0005 000f 01ff 3603 000e de0a b91d 4215
000000f0: 10fa 10d8 fdbb de0d 4f81 34f3 ff01 f2e6
0 11 0 15 0 0 25 -9
0 127 0 -31 23 -15 4 19
-2 -8 -6 -1 -12 21 20 -3
8 -28 57 17 0 0 -2 -6
0 -12 1 -127 0 1 -11 114
0 1 2 43 -73 122 2 -49
33 24 27 -12 87 -59 -14 66
-1 -3 -34 -1 0 0 -7 -84
0 -8 -1 -127 1 1 1 92
0 -56 -1 66 -48 28 -2 -87
68 48 7 -90 83 -56 3 30
-4 12 -14 -87 0 0 19 -48
0 -1 0 -13 0 0 -2 -14
0 25 2 -17 105 -11 -46 -2
-28 5 127 45 -16 21 63 -2
-22 50 -3 15 0 0 -16 1
0 -10 0 -17 0 0 -127 13
0 -51 -6 37 -126 12 -2 6
32 -6 -33 -17 54 -50 -39 0
1 -13 -19 -39 0 0 1 -3
0 -14 -1 -37 0 1 1 68
0 -72 3 23 -127 -3 -23 -52
47 -12 13 -4 35 -13 0 16
-12 54 -86 -14 0 1 39 -7
0 2 0 10 0 1 26 -58
0 7 -18 -3 -77 -14 52 102
1 -52 -70 -12 7 -127 -102 -47
63 -68 22 27 0 0 -94 27
0 5 0 15 1 -1 54 3
0 14 -34 10 -71 29 66 21
16 -6 16 -40 -3 -69 -34 13
79 -127 52 -13 -1 1 -14 -26

tfl.pseudo_qconst7 i1 [32, 64]
00000000: fdfe fa04 0704 0204 f90e fefc ff1e 041a
00000010: 07f4 f102 ffec b1f5 0105 05fe 0803 fdfd
00000020: f9f8 2a7f ffd3 0bff fd09 0105 45fc 0408
00000030: 1100 f4fe cff7 f903 f4fe 03f9 16fb f817
00000040: 02ff fc01 0000 f001 007f 03ff 0800 fe00
00000050: 0000 00f9 00f9 0000 ec00 fcee 0100 f002
00000060: fe00 ffff f700 0008 ee00 fd00 01f3 00ff
00000070: fffe 01e0 0000 01fe 0943 13fb 0000 ca00
00000080: 050f 3516 0724 fbe0 1702 eff2 056b 15fe
00000090: 0df9 2319 b40e 00e7 2df0 0cde 0e31 15c6
000000a0: fef6 e1cc 133b 1cd7 f001 163f 7f25 791b
000000b0: d70d 0c03 00d5 bdec ba03 0907 27e6 fcda
000000c0: 1000 e305 0000 0900 00fd f4e8 df00 ff01
000000d0: 0000 0007 00ea 0000 b100 0081 1300 fefc
000000e0: 0d00 0000 2a00 0007 ec00 0a00 00f6 0006
000000f0: 00d7 00fc 0000 0001 c2ea 9af9 0000 0600
-3 -2 -6 4 7 4 2 4
-7 14 -2 -4 -1 30 4 26
7 -12 -15 2 -1 -20 -79 -11
1 5 5 -2 8 3 -3 -3
-7 -8 42 127 -1 -45 11 -1
-3 9 1 5 69 -4 4 8
17 0 -12 -2 -49 -9 -7 3
-12 -2 3 -7 22 -5 -8 23
2 -1 -4 1 0 0 -16 1
0 127 3 -1 8 0 -2 0
0 0 0 -7 0 -7 0 0
-20 0 -4 -18 1 0 -16 2
-2 0 -1 -1 -9 0 0 8
-18 0 -3 0 1 -13 0 -1
-1 -2 1 -32 0 0 1 -2
9 67 19 -5 0 0 -54 0
5 15 53 22 7 36 -5 -32
23 2 -17 -14 5 107 21 -2
13 -7 35 25 -76 14 0 -25
45 -16 12 -34 14 49 21 -58
-2 -10 -31 -52 19 59 28 -41
-16 1 22 63 127 37 121 27
-41 13 12 3 0 -43 -67 -20
-70 3 9 7 39 -26 -4 -38
16 0 -29 5 0 0 9 0
0 -3 -12 -24 -33 0 -1 1
0 0 0 7 0 -22 0 0
-79 0 0 -127 19 0 -2 -4
13 0 0 0 42 0 0 7
-20 0 10 0 0 -10 0 6
0 -41 0 -4 0 0 0 1
-62 -22 -102 -7 0 0 6 0

tfl.pseudo_qconst9 i1 [64, 15]
00000000: 7f45 0264 4700 44bf d5e4 f305 0433 e7e9
00000010: 2705 1112 a0de 002d 81e2 fefe 1902 d5f8
00000020: faff 7ffe 160e f725 0208 fffb db7f e203
00000030: 1802 f3fe 0201 fe00 0201 0225 33fe 300b
00000040: f602 07ce 0705 f781 a951 02d2 811a c03a
00000050: 1c2a 08ea efc1 d9ac 3b32 54f9 0200 11fb
00000060: 811a 1500 0aeb 0ce5 f228 dcb4 847f e5c8
00000070: 0576 cee8 bc33 dc49 f8eb 1409 eec2 3ee0
00000080: 81fa e715 fffd cf81 ff21 f700 4ef2 06fe
00000090: 05f2 0a00 ffff d0f5 089d e77f f41f f6fa
000000a0: 02fc 3a2e 09d0 fdfe c803 0c7f ebd5 0000
000000b0: fff9 18dd 8100 031c 1900 ed02 1603 1e0d
000000c0: ff06 0aaa bdee 3781 0b5a f2f2 84fe e320
000000d0: 27d4 7f0c b6e5 35fb fa00 4810 3500 01b1
000000e0: 00f3 e8ee e9de c7fa 1a19 f581 0a08 e20c
000000f0: 810c 2afe fc12 1ff7 e901 fd03 01fa e706
127 69 2 100 71 0 68 -65
-43 -28 -13 5 4 51 -25 -23
39 5 17 18 -96 -34 0 45
-127 -30 -2 -2 25 2 -43 -8
-6 -1 127 -2 22 14 -9 37
2 8 -1 -5 -37 127 -30 3
24 2 -13 -2 2 1 -2 0
2 1 2 37 51 -2 48 11
-10 2 7 -50 7 5 -9 -127
-87 81 2 -46 -127 26 -64 58
28 42 8 -22 -17 -63 -39 -84
59 50 84 -7 2 0 17 -5
-127 26 21 0 10 -21 12 -27
-14 40 -36 -76 -124 127 -27 -56
5 118 -50 -24 -68 51 -36 73
-8 -21 20 9 -18 -62 62 -32
-127 -6 -25 21 -1 -3 -49 -127
-1 33 -9 0 78 -14 6 -2
5 -14 10 0 -1 -1 -48 -11
8 -99 -25 127 -12 31 -10 -6
2 -4 58 46 9 -48 -3 -2
-56 3 12 127 -21 -43 0 0
-1 -7 24 -35 -127 0 3 28
25 0 -19 2 22 3 30 13
-1 6 10 -86 -67 -18 55 -127
11 90 -14 -14 -124 -2 -29 32
39 -44 127 12 -74 -27 53 -5
-6 0 72 16 53 0 1 -79
0 -13 -24 -18 -23 -34 -57 -6
26 25 -11 -127 10 8 -30 12
-127 12 42 -2 -4 18 31 -9
-23 1 -3 3 1 -6 -25 6
